app/src/main/ml/patech_model.tflite (tflite, 19872 bytes, 5 tensors)

sequential_1/dense_3/BiasAdd/ReadVariableOp/resource f4 [64]
000000 87 d7 20 3b ff a8 e0 3c 19 65 2a 3d ba e7 60 bb
       0.0024542527 0.027424334 0.04160032 -0.0034317807
000010 ee 61 9e bd 09 7f 05 bd 00 00 00 00 bb 11 4c 3d
       -0.07733522 -0.032591853 0.0 0.049821597
000020 8f b6 ec bb af 22 ec bc 7c 08 b7 bc 00 00 00 00
       -0.007223911 -0.028825132 -0.022342913 0.0
000030 07 5d 9a 3c c9 bf d3 bb 22 6c 80 bb 88 de 54 bc
       0.018843187 -0.0064620716 -0.0039191404 -0.012992509
000040 84 65 df 3a 23 05 8c bb b9 f7 0f bc 1f 9b 8e bc
       0.0017043804 -0.0042730733 -0.008787089 -0.017407952
000050 dd 7d b1 3c 70 69 d4 3c 00 00 00 00 00 00 00 00
       0.021666462 0.025929183 0.0 0.0
000060 19 a9 05 3d 13 25 67 bc 00 00 00 00 00 00 00 00
       0.032631967 -0.01410796 0.0 0.0
000070 12 f8 8c bb 00 00 00 00 4a 6f 37 bc 18 75 f3 3c
       -0.004302033 0.0 -0.011195967 0.02971892
000080 29 9e 53 bb 00 00 00 00 00 00 00 00 c3 52 f5 b8
       -0.0032290316 0.0 0.0 -0.00011697926
000090 23 c9 94 bb 60 bb 27 bb 35 14 e0 3c 5e f1 af 3c
       -0.004540579 -0.0025593862 0.027353385 0.021477398
0000a0 11 91 68 b9 bd 0e ad b9 19 33 c2 3c be 18 06 3c
       -0.00022179286 -0.00033008112 0.023706006 0.00818461
0000b0 05 a0 81 bb 09 73 57 bb 72 16 59 bb 1c 10 ed 3a
       -0.0039558434 -0.0032874963 -0.003312495 0.0018086466
0000c0 00 00 00 00 84 78 cb bb 3c 5a 81 3c af c2 aa 3c
       0.0 -0.006209435 0.015790097 0.020844785
0000d0 53 c7 f5 bb 73 8d ca bb 97 8b a4 ba af 50 55 bb
       -0.007500568 -0.006181413 -0.0012553808 -0.0032549312
0000e0 a5 94 f6 bb 00 00 00 00 00 00 00 00 13 87 e2 3c
       -0.007525044 0.0 0.0 0.027652299
0000f0 9b 0e 2e bb 00 00 00 00 e5 25 5e 3c 85 8b ba 3b
       -0.0026558999 0.0 0.013558839 0.0056929016

sequential_1/dense_3/MatMul f4 [64, 2]
000000 67 b7 6d 3e 5e 91 13 be 76 42 bd be ed 8b 84 3d
       0.23214494 -0.14410922 -0.36964768 0.06472001
000010 61 9b e5 be d9 80 96 3d e4 3c 1a 3e 91 01 db bd
       -0.44845107 0.073487945 0.1506229 -0.10693658
000020 8a 7d 77 3e b6 e6 91 ba c9 a9 85 3d c4 be 16 3d
       0.24168983 -0.0011131379 0.065265246 0.036803022
000030 f7 ec 03 be c0 f6 0f be a8 f7 f7 be 80 15 b9 3d
       -0.12883364 -0.14058971 -0.48431134 0.09037304
000040 23 ad fb 3d e7 4f 67 be 00 98 49 3d 07 c3 67 3d
       0.122888826 -0.22589074 0.049217224 0.056582477
000050 aa 06 38 ba 46 3e b5 3d f7 e7 1c be 72 24 77 be
       -0.0007020036 0.08849768 -0.15322863 -0.24134997
000060 b6 33 a2 be 3c c5 f3 3c 12 d7 a7 3d 20 db 95 bd
       -0.31680077 0.029757135 0.08195318 -0.073171854
000070 f1 ba 24 bd 90 5a 23 bc 5e 82 69 3e 59 7b fa bd
       -0.040217344 -0.009970322 0.22803637 -0.12230558
000080 7f c5 d5 3d 61 27 ab bd df 6f ef 3d 13 cb cd bd
       0.1043806 -0.0835712 0.116912596 -0.10048499
000090 8d 78 75 bc ef dc 60 3d a6 34 6a be 8c 4b 28 3e
       -0.014982355 0.0548982 -0.22871646 0.16435069
0000a0 fa 1d a0 be 12 7c 3c 3d 25 4d d1 be cb 62 56 3d
       -0.3127287 0.04601676 -0.4087917 0.05234031
0000b0 80 b9 cb bb 20 38 42 bd c0 25 af 3c c2 75 ab bd
       -0.0062171817 -0.047416806 0.021380305 -0.0837207
0000c0 d0 30 bf be 3c 37 52 3d 41 5f 43 3e c8 cc c5 bd
       -0.37341928 0.051322207 0.19079305 -0.096581995
0000d0 a8 57 72 bd 20 4d 9e bd 9e e2 6b be 40 29 20 bd
       -0.059165627 -0.07729554 -0.23035666 -0.03910184
0000e0 08 0c e5 3d 15 18 9d bd 78 58 23 3d 1c 3a 45 be
       0.111839354 -0.07670609 0.039879292 -0.19260448
0000f0 98 9e 13 3e 13 11 8f bd 70 e1 f7 be 19 1a 77 3d
       0.14415967 -0.069856785 -0.48414183 0.060327623
000100 31 0d 84 3d 72 16 bb bd ec b7 2c be 88 f2 c0 bd
       0.064478286 -0.091351405 -0.16867036 -0.09421259
000110 8a 2f f5 bd f4 e4 80 bd 93 d3 c5 3d 7d e4 0d be
       -0.11971958 -0.06293669 0.09659495 -0.13856693
000120 43 60 82 bc 6c 6b de bc f9 a1 48 3c f8 c4 92 bd
       -0.015915042 -0.027150832 0.012245649 -0.07166475
000130 9f 48 9d be 19 7c 28 3d 75 1c 41 be 24 44 f5 3c
       -0.30719468 0.041133974 -0.18858512 0.029939719
000140 c2 7c 4b 3e d7 b5 8f be c3 07 5d 3e d7 95 47 be
       0.1987181 -0.2806842 0.21584992 -0.19490753
000150 9a f9 9a be ae 46 72 3d 35 b9 e7 3c 7f 21 ac 3b
       -0.30268556 0.059149437 0.028286556 0.0052530165
000160 38 02 db bd 4a 3b 04 ba d2 3c 30 bd bc d6 61 bc
       -0.106937826 -0.0005044235 -0.043026753 -0.013784107
000170 15 44 31 3e 90 98 35 be d4 29 d0 3d 18 5f a9 bd
       0.17311127 -0.17733979 0.10164228 -0.08270091
000180 30 5e b5 bc 5e f9 50 be 7e d1 a5 be b9 7d 80 3b
       -0.022139639 -0.20407626 -0.32386392 0.0039212373
000190 1a f6 7c be 94 d8 14 3d f9 ad 8d be 84 8f 10 3d
       -0.24703255 0.036339357 -0.27671793 0.035293117
0001a0 b6 bf 0f 3d c4 19 25 bd 87 a8 48 3e 3a d1 d1 bd
       0.03509494 -0.040307775 0.19595538 -0.10244985
0001b0 b6 6d 47 3e 5b 36 8d be 8c 70 9a 3d ec 3c 79 bd
       0.19475445 -0.27580532 0.07540998 -0.060849115
0001c0 a2 3c 03 3e 30 4c 16 be 56 e0 02 be ce fb a3 bd
       0.12816098 -0.146775 -0.1278089 -0.08007012
0001d0 74 27 a1 3d 73 4f 22 be d3 57 15 3e e5 69 41 bd
       0.07868853 -0.1585062 0.14584284 -0.04722013
0001e0 f8 21 19 3d 18 de 30 bd 9a b2 a8 bd 20 36 f2 bc
       0.03738591 -0.043180555 -0.082371905 -0.029566824
0001f0 a2 1f 6d be 24 e0 a8 3c 80 cb 3c 3d db 8a 85 bd
       -0.23156598 0.020614691 0.04609251 -0.06520625

sequential_1/dense_4/MatMul f4 [64, 64]
000000 b1 c8 38 be 19 29 64 3e 92 7b 0f 3e af 2c 43 be
       -0.18045308 0.22281303 0.14011982 -0.19060014
000010 94 96 ea bd 24 0b ce bd ec fe 29 3d 06 1f 64 3c
       -0.11454502 -0.10060719 0.041502878 0.013923412
000020 fd be 28 be a9 db 53 3e 26 92 0b bd dc 18 f9 bd
       -0.16479106 0.20689262 -0.034074925 -0.12162945
000030 c2 15 80 bc 29 0c d3 bd 4b e5 5d 3e bc 7f be bc
       -0.015635375 -0.10305054 0.216695 -0.023254268
000040 15 32 aa bd c8 a5 40 3e 1b 65 94 bd 58 f6 bd bd
       -0.08310334 0.1881324 -0.07245847 -0.09275502
000050 57 45 c7 3c b5 95 0e be 1c 47 7a bd 25 68 56 3e
       0.024325056 -0.13924296 -0.06110297 0.20938165
000060 5e 19 ca bd 5c c3 f1 3d 2b f9 3a 3e 00 3a 7c 3c
       -0.0986812 0.1180484 0.18259113 0.015394688
000070 bc 75 54 3e 70 b7 02 3d 65 9a 51 be a8 e4 51 3e
       0.20748037 0.03191322 -0.20469053 0.20497382
000080 37 65 49 be a0 a7 18 3c fe c0 3b be 16 19 e8 bd
       -0.19667517 0.009317309 -0.1833534 -0.1133291
000090 36 41 34 3e df 08 51 3e 14 6f 23 3e cf ef 6b bd
       0.17603001 0.2041354 0.15960342 -0.057601746
0000a0 e6 5b bc 3c ee ac 0e be af 74 91 bd 0d 36 50 be
       0.02299304 -0.13933155 -0.07102334 -0.20333119
0000b0 4f 62 8f bd 7d 19 1c 3d 41 00 4a 3d 5a 97 0e be
       -0.07001173 0.038110245 0.04931665 -0.13924924
0000c0 af 60 4f 3e 74 fa 1c bb 85 69 6d 3d 9c 61 3a be
       0.20251726 -0.0023952993 0.05796196 -0.18201298
0000d0 f8 66 41 3b 5c 44 3b be 4c 4e 2a 3e b8 21 19 3e
       0.0029510837 -0.18287796 0.1663143 0.14954269
0000e0 39 e7 f0 bd 24 5e 34 bd df 87 c2 bd 21 9f 9a 3d
       -0.11762852 -0.044035092 -0.094985716 0.07549883
0000f0 09 b9 42 3e 24 9d 54 be fb 37 48 3e a6 d8 19 3e
       0.19015898 -0.2076307 0.19552605 0.15024051
000100 72 6b 3f 3e f6 d0 5c 3e 3d 61 21 3e f5 62 c6 bb
       0.18693331 0.21564087 0.1575975 -0.006054277
000110 fb 0f cb bd 94 75 06 3e d8 d0 28 be ac 0d 00 3e
       -0.099151574 0.1313079 -0.16485918 0.12505215
000120 45 21 01 be f0 24 ec 3d ff fc 2e 3d a0 a5 b3 bc
       -0.12610348 0.11530483 0.042721745 -0.021929562
000130 10 0e 9e bb c3 28 60 3e 45 6b 4a 3d f8 88 0b 3e
       -0.0048234537 0.2189055 0.049418706 0.13626468
000140 5c 70 b0 bd 22 6b 35 be 80 1d 6a bd 3c f4 22 be
       -0.08615181 -0.17716649 -0.05715704 -0.1591348
000150 8e 2a 95 bb 49 29 32 3e ac 9d 2e 3d 00 0c 35 be
       -0.004552192 0.17398562 0.042630836 -0.17680359
000160 09 28 0b be 35 f2 d3 bd 02 e3 38 be e3 42 cf bd
       -0.13589491 -0.10348932 -0.18055347 -0.101201795
000170 0d 9b a2 3d 8f b8 11 3e ab ae 2e be 01 70 be 3d
       0.0793973 0.1423056 -0.17058818 0.09298707
000180 d7 96 2c be e2 0c d7 3d de 97 8b 3d 5c a3 4f bd
       -0.16854416 0.10500504 0.06816076 -0.0506929
000190 d2 30 62 bc eb e9 d3 bc 5c c6 c4 bd 9c 99 5f 3e
       -0.013805585 -0.025868377 -0.096081465 0.21835941
0001a0 53 45 b7 bd 63 63 ad bd 95 31 9a 3b a6 f6 0b be
       -0.089487694 -0.08466222 0.0047056177 -0.13668308
0001b0 34 71 c4 bd 37 33 7f 3d c7 bb d8 bd 76 23 2c 3e
       -0.09591904 0.0623047 -0.10582691 0.16810402
0001c0 98 bc 97 3c 6e bd 0c be 1b d6 bd 3c 4b dc dd 3d
       0.018522546 -0.13744137 0.023173383 0.10833033
0001d0 f3 60 ec bd 5a 68 5a 3d 8d ad 0f be 40 97 26 3d
       -0.11541929 0.053322174 -0.14031048 0.040671587
0001e0 43 18 e1 3d 53 03 25 be 46 6a a0 bd 8e 23 bb bd
       0.10990956 -0.1611455 -0.0783277 -0.09137641
0001f0 39 a7 74 3d 52 a7 ab 3d c2 d9 e3 3c 8a f5 33 3d
       0.05972979 0.08381523 0.027813796 0.043935336
000200 fd ef e9 bd 95 37 39 3e c9 ae 23 3e 0f 89 fb 3d
       -0.11422727 0.18087609 0.15984644 0.12282001
000210 be ff 35 3e dc a6 f6 3c 50 7d 5f bd da b9 90 bd
       0.17773339 0.030108862 -0.054562867 -0.07066698
000220 34 94 05 be a4 a4 0a 3e f8 52 2d be 5c b3 91 bd
       -0.13044816 0.13539368 -0.16926181 -0.07114288
000230 41 a6 da 3c b6 e8 52 be 01 f3 46 bd a7 2b ed 3d
       0.026690604 -0.20596585 -0.04857159 0.11580592
000240 a8 2f fe 3c 3e 61 60 be ce f4 1d 3e 47 0c fd bd
       0.031028584 -0.21912095 0.15425417 -0.12355857
000250 99 ba f9 3d 1f a6 ab 3d 64 e9 0e 3d a0 0f 95 bb
       0.12193794 0.083812945 0.034890547 -0.004548982
000260 2f 59 8e 3d 57 20 17 3e be 5f 80 3d 7d 87 4c be
       0.06950604 0.1475843 0.062682614 -0.1997356
000270 ba 53 e4 bd 8d d5 0d 3e 56 fb 30 be 57 ae 61 3e
       -0.11148782 0.13850994 -0.17283377 0.22039162
000280 ee 43 a7 bd f8 b8 42 bd 9e 89 5a be f7 4b 86 bc
       -0.081672534 -0.04753968 -0.2134156 -0.016393645
000290 3a b2 f6 3d 72 11 33 3e 7e 8e cd 3d e5 82 57 be
       0.12045713 0.17487124 0.10036944 -0.21046026
0002a0 20 61 59 be e9 fd 2d 3d 26 9a c6 bd 4a 89 e2 3d
       -0.21228456 0.042478476 -0.0969737 0.11061342
0002b0 c5 a7 2c 3d d5 b4 a0 3d 2e 7c 42 be b3 43 12 3e
       0.042152185 0.07846991 -0.18992683 0.14283638
0002c0 20 2a 4c bc 60 98 07 3e 26 d2 15 3e e5 f1 0d 3e
       -0.012461215 0.1324172 0.14630947 0.13861807
0002d0 99 9b ba 3d 0c ba 0c be ad a7 1e 3d 83 cc 11 3e
       0.09111709 -0.13742846 0.038734127 0.14238171
0002e0 0a 30 55 3d 0d e3 43 be 4a dd 5b be b1 a4 25 be
       0.052047767 -0.19129582 -0.21471134 -0.16176106
0002f0 6c 35 5c bd 3c b2 6f bd dc 9e 22 3e 8c a2 a2 3c
       -0.053761885 -0.058519587 0.15880913 0.019852899
000300 af 03 c0 3d 79 1e c9 3d 0e 04 0f bd 01 cc 4e 3e
       0.093757026 0.09820265 -0.034915976 0.20195009
000310 43 56 bf bd f9 ec 9b bd 4f a9 2e 3e c2 7b c3 bd
       -0.09342625 -0.07613558 0.17056774 -0.09545089
000320 50 b3 5b bd 85 f0 54 3d 43 22 30 be dc fb 59 3d
       -0.053637803 0.05198719 -0.1720057 0.053218707
000330 66 62 c6 bd 72 a5 2a 3d 84 c7 13 be 14 8d 2e be
       -0.09686737 0.041661687 -0.14431578 -0.17046005
000340 7d 0f 84 3c c8 bd ae bd 42 3e 58 3e eb 30 6f 3d
       0.016120667 -0.08532292 0.211175 0.05839626
000350 30 71 8a bb b3 7f 18 be 9c 3e 71 3d 2d 9d 48 3e
       -0.004224919 -0.14892463 0.0588976 0.19591208
000360 ef a0 5d be 47 7f b0 bd cd f5 40 3e a0 6a 90 bc
       -0.21643423 -0.08618026 0.18843766 -0.017628968
000370 a1 65 b2 bc cc 8b 8e bd da 8c c2 bd 61 ca b5 3d
       -0.021776976 -0.06960258 -0.094995216 0.08876491
000380 62 ff 41 be 80 12 84 bc a4 a6 55 bd 02 7e 08 3e
       -0.18945077 -0.016122103 -0.052160874 0.13329318
000390 40 07 a6 3d 8f c9 31 3e 97 26 36 bd 5a 38 55 3c
       0.081068516 0.17362045 -0.044470396 0.013013924
0003a0 19 96 17 3e 61 88 37 3e ff ac 34 3e df b4 14 bd
       0.14803351 0.17923118 0.17644118 -0.036305305
0003b0 1c f4 23 be d6 e0 1d 3e 03 f4 98 bd c8 f1 35 3c
       -0.16011089 0.154178 -0.074684165 0.011105008
0003c0 45 ec 2d 3e d7 dd 4c 3e b4 4e 9b 3d 18 a5 46 3d
       0.16984661 0.200065 0.07583371 0.04849729
0003d0 b4 8d fa 3d b5 9a 54 be 9e 4c bf bc 88 fa d4 3d
       0.12234059 -0.20762141 -0.023351964 0.103993475
0003e0 44 cf ed bb e5 c7 c3 bd 20 3d ad bb 84 68 34 3b
       -0.007257374 -0.09559611 -0.0052868277 0.0027528116
0003f0 fb aa a8 bd 4c ef 56 bd 18 16 04 3e 68 64 6c 3d
       -0.08235737 -0.052474305 0.12899053 0.057712942

sequential_1/dense_5/MatMul f4 [4, 64]
000000 1b 85 d7 bd ef 70 5e be 35 b1 09 3e 5e 51 ce bd
       -0.10523435 -0.21722768 0.13446505 -0.10074113
000010 db 59 95 be ea 8b 47 3e 68 d4 4a 3d 6d 28 49 be
       -0.29170117 0.19486967 0.049518973 -0.19644327
000020 4b e1 f6 bd fb b8 47 be ec 58 d3 bd ac e9 0c be
       -0.1205469 -0.19504158 -0.10319695 -0.13761014
000030 63 11 d8 3b 90 08 21 be 1d aa 41 3d 1a 6c f2 3d
       0.0065938695 -0.15725923 0.047281373 0.11837025
000040 0e 87 2c bd 16 53 6d be d5 52 67 3e 2a a4 34 3e
       -0.042120986 -0.23176226 0.22590192 0.17640749
000050 e2 fc 93 3d 7a ca 0a 3d 10 7c 2d 3d f2 c2 dc 3d
       0.07225968 0.033884503 0.042354643 0.1077937
000060 e2 63 57 3d 19 7e 81 be 39 57 87 3e be ea b7 3d
       0.05258549 -0.25291517 0.26433733 0.089803204
000070 e7 cc 33 3e 36 e5 23 be 2e d2 5f be d9 ca 4c 3e
       0.17558633 -0.16005406 -0.21857521 0.19999255
000080 cf d9 2e 3d 74 32 29 3e 2e a0 b7 bd 67 3c 35 3d
       0.042688187 0.16523153 -0.08966099 0.044247057
000090 77 2d 32 bd 7d 81 75 3e 8b dc 13 be a2 9b fe 3d
       -0.04350039 0.23975177 -0.14439599 0.12432028
0000a0 86 d4 58 3e f2 69 fa bd 2f 66 0d 3e 48 fc 50 3b
       0.21174821 -0.12227239 0.13808511 0.0031888653
0000b0 74 1f e4 bd 55 84 91 be 27 69 33 be e0 ed 4d be
       -0.11138812 -0.28421274 -0.17520581 -0.20110273
0000c0 04 d2 00 be 3d dc 4c be 5d 38 53 3e c7 20 b8 3d
       -0.12580115 -0.20005889 0.2062697 0.08990627
0000d0 d4 db 0f be a2 04 5f 3c cb c3 2e 3e 05 6b b3 bb
       -0.14048702 0.013611944 0.17066877 -0.005475404
0000e0 02 59 03 bd 3f f6 41 bc a0 c3 3d be 0d 7c 19 bd
       -0.032067306 -0.011838495 -0.18531656 -0.03747182
0000f0 06 41 06 be ec 55 fe bd 31 5a 69 bd 10 23 8e 3e
       -0.13110742 -0.12418732 -0.05697078 0.27761126
000100 b2 6b 4a 3e 6a 0d c0 bd 34 55 ed 3c d3 f1 6d 3e
       0.19767645 -0.093775585 0.028971292 0.2323678
000110 bd 22 86 be f9 63 fd bd 51 45 94 bd 27 a3 29 3e
       -0.26198378 -0.12372584 -0.072397836 0.16566144
000120 76 c8 9f 3c 3e 74 3f 3c df b6 6f bc ce 4c 53 3e
       0.019504767 0.011685429 -0.014631002 0.20634767
000130 3f 37 69 3d 05 be 7e 3c eb 8a 76 3d eb f2 c5 3d
       0.056937452 0.015548234 0.060191076 0.096654736
000140 97 35 61 be 40 cb 65 3d 54 23 49 3d bf 3b 2c 3c
       -0.21993099 0.056102037 0.049105957 0.010512291
000150 a2 04 7b bd 58 3d cb 3c 0d 6f 67 be cd cb 18 be
       -0.061283715 0.024809524 -0.22600956 -0.14921494
000160 a4 98 82 be 0c 43 a0 3d 38 94 f8 bd 56 61 80 3d
       -0.2550708 0.07825288 -0.121376455 0.06268565
000170 c1 85 12 3e b3 ca d4 3d c8 75 46 be 65 86 5c 3c
       0.14308836 0.10390224 -0.19380867 0.0134597765
000180 12 2a 97 bc 02 38 01 be 8b 3a 50 3e 8f e4 8a bd
       -0.018452678 -0.12619022 0.20334832 -0.06781875
000190 33 41 c5 3d a5 95 5b be ba c0 0b 3e 13 89 1c be
       0.096315764 -0.21443804 0.13647738 -0.15286665
0001a0 2a f0 8f bd b0 e3 0d 3e 1e 62 14 be db 57 6a 3e
       -0.070282295 0.13856387 -0.14490554 0.22885077
0001b0 1e 96 da 3d a9 bd 27 3e 7a 7a 17 be 96 65 88 3d
       0.10673164 0.16380943 -0.14792815 0.06660001
0001c0 d8 1c bf bd 1a 73 8f be 73 5a ae bc 45 7a 86 3d
       -0.093316734 -0.28017503 -0.021283364 0.0656629
0001d0 c6 3c 6a be 50 60 aa 3d 0d 96 1b be 48 c1 5f be
       -0.22874746 0.083191514 -0.15193959 -0.21851075
0001e0 37 e2 68 3d 73 7b 60 3e 9c f0 49 bb 0f 8a ba 3d
       0.05685636 0.21922092 -0.003081358 0.09108364
0001f0 66 47 01 bc 19 96 81 bd e8 cb 01 be 8e a1 25 be
       -0.007890558 -0.06327457 -0.1267544 -0.1617491
000200 ff b2 91 bc 9e 25 8d 3d f8 ad 00 be 97 8c 45 3e
       -0.017785547 0.068919405 -0.12566364 0.19291912
000210 c3 a8 8e bd f0 1c 40 bc 91 85 94 bd 82 87 ee bd
       -0.069657825 -0.011725649 -0.07252038 -0.1164694
000220 fe 61 8b 3d 97 c3 43 3c 66 42 21 bd b7 17 14 3e
       0.068058 0.011948488 -0.039369963 0.14462171
000230 12 d0 1f 3e 65 fa 4f 3e c4 6a 3d bc 6a c2 0f be
       0.15606716 0.20310362 -0.011561099 -0.14039007
000240 06 37 5d be b3 a6 43 be f2 d7 b1 3d 08 ec 40 3e
       -0.21603021 -0.1910656 0.086837664 0.18840039
000250 8b de 8b 3e 7c 93 05 be c6 30 14 3c 48 b7 d4 bc
       0.27318224 -0.13044542 0.009044832 -0.025966302
000260 8a b7 5b be 74 c4 84 3d 37 aa 1b bc 18 a3 d3 3d
       -0.21456733 0.06482783 -0.009501032 0.10333842
000270 68 8d 72 bd 56 1b f5 bd d7 f4 e6 3d c6 43 d2 3d
       -0.059216887 -0.119681045 0.11277168 0.10266833
000280 c7 0a 32 bd 22 7c be 3d fd fa 55 3d 38 36 5a be
       -0.04346731 0.0930102 0.052241314 -0.21309745
000290 6b fe 76 3e 49 66 37 3e f5 9e 43 bd 80 4f bc bd
       0.2412049 0.17910112 -0.047759015 -0.09194851
0002a0 ba 8b 47 be ea e9 c5 bd 5e 15 5e be 5d b6 82 3e
       -0.19486895 -0.09663756 -0.21687838 0.25529757
0002b0 4e 89 1d 3d 30 70 88 be 3d 15 ad bd e2 56 13 be
       0.038461022 -0.26648092 -0.084513165 -0.14388612
0002c0 34 ab 8f bd 0b 8d 34 be c6 f1 58 bc 41 84 64 3e
       -0.07015076 -0.17631929 -0.013241237 0.22316076
0002d0 8b 18 39 3d 3d 20 3d 3e a0 c5 71 bc fe 98 ca bd
       0.04518942 0.18469329 -0.01475659 -0.09892462
0002e0 6f 96 b1 3d c4 18 91 3d a9 d2 56 3d 5a 19 a5 3d
       0.08671271 0.07084802 0.052446995 0.08061476
0002f0 f7 00 8f 3c 78 8b 29 3e ab 19 d1 bd 6c 09 b9 bd
       0.017456515 0.1655711 -0.10209974 -0.09035
000300 62 6e 0c 3e f6 4e 0d 3e c6 f2 44 3e 7c a7 a0 3c
       0.13713983 0.13799652 0.19233236 0.019611113
000310 4c 05 18 3d fb 1c 5c 3e 1e 07 82 be d6 bd a9 bd
       0.037114426 0.2149543 -0.25396055 -0.082881615
000320 ee 19 41 3d ab 61 e8 bd 51 61 38 3d 56 ed 72 be
       0.04714387 -0.11346754 0.045014683 -0.23723349
000330 e0 bf 78 be 06 9e 21 3e 07 f4 a2 3e 7c 30 de bd
       -0.24291945 0.15782937 0.31826803 -0.108490914
000340 75 57 85 3c c2 34 b0 3d 9f da 85 be 86 50 ac 3e
       0.016277054 0.08603813 -0.26143357 0.33655185
000350 38 7a af bc 60 65 57 3e 9e d9 9d 3e 5f f1 17 3d
       -0.021420583 0.21034765 0.3083009 0.037095424
000360 be 17 7f 3e f6 71 ef 3d 85 a9 f4 3b c2 de fc bd
       0.249114 0.11691658 0.0074664974 -0.12347175
000370 e3 c9 ab 3e f2 36 31 3c e7 66 35 3d 6a f2 26 be
       0.33552465 0.010816323 0.04428759 -0.16303411
000380 5f ff 18 3e cf d1 1f 3e 42 8c 73 3e 3d 61 82 3d
       0.14941166 0.1560738 0.23783973 0.06366203
000390 9c 0b a6 3e eb 66 60 be a7 db 74 3d 46 39 99 3d
       0.32430732 -0.2191426 0.05977979 0.07481627
0003a0 3f 8d a9 3d 91 d8 8e be 50 8c bd 3d ed 73 d0 3c
       0.08278894 -0.27899602 0.09255278 0.025445903
0003b0 6b 29 c1 3d 92 83 1a be b4 66 a3 bd de e3 df 3c
       0.09431728 -0.15089253 -0.079785734 0.027330335
0003c0 59 02 83 be 06 8d ad bd fa b4 b3 3e c5 f7 c1 3d
       -0.2558773 -0.08474164 0.35099012 0.094710864
0003d0 7b e4 30 3e 2e 60 7e be e8 56 b2 be 9b c3 03 be
       0.17274658 -0.24841377 -0.3483193 -0.12867586
0003e0 93 34 dc 3d 2c d8 1c be 66 67 22 3e c0 27 64 3e
       0.10752215 -0.15316838 0.15859756 0.22280788
0003f0 46 6c 5e be 88 ff 37 3e 07 80 1c 3e 47 62 a5 be
       -0.2172099 0.17968571 0.15283214 -0.32301542

sequential_1/dense_5/MatMul;sequential_1/dense_5/BiasAdd f4 [4]
000000 10 56 19 be 5c 42 9e be c4 db b7 be 71 9d 86 3f
       -0.14974236 -0.30910003 -0.35909855 1.0516797
